homepap-lab-full-1600063

Training data count: 98
	With apnea: 49
	Without apnea: 49
Validation data count: 30
	With apnea: 15
	Without apnea: 15
Test data count: 124
	With apnea: 17
	Without apnea: 107


Model2(
  (conv_layers): Sequential(
    (0): Conv1d(1, 32, kernel_size=(3,), stride=(1,), padding=(1,))
    (1): ReLU()
    (2): BatchNorm1d(32, eps=1e-05, momentum=0.1, affine=True, track_running_stats=True)
    (3): Conv1d(32, 64, kernel_size=(3,), stride=(1,), padding=(1,))
    (4): ReLU()
    (5): BatchNorm1d(64, eps=1e-05, momentum=0.1, affine=True, track_running_stats=True)
    (6): MaxPool1d(kernel_size=2, stride=2, padding=0, dilation=1, ceil_mode=False)
    (7): Dropout(p=0.5, inplace=False)
    (8): Conv1d(64, 128, kernel_size=(3,), stride=(1,), padding=(1,))
    (9): ReLU()
    (10): BatchNorm1d(128, eps=1e-05, momentum=0.1, affine=True, track_running_stats=True)
    (11): Conv1d(128, 128, kernel_size=(3,), stride=(1,), padding=(1,))
    (12): ReLU()
    (13): BatchNorm1d(128, eps=1e-05, momentum=0.1, affine=True, track_running_stats=True)
    (14): MaxPool1d(kernel_size=2, stride=2, padding=0, dilation=1, ceil_mode=False)
    (15): Dropout(p=0.5, inplace=False)
    (16): Conv1d(128, 256, kernel_size=(3,), stride=(1,), padding=(1,))
    (17): ReLU()
    (18): BatchNorm1d(256, eps=1e-05, momentum=0.1, affine=True, track_running_stats=True)
    (19): Conv1d(256, 256, kernel_size=(3,), stride=(1,), padding=(1,))
    (20): ReLU()
    (21): BatchNorm1d(256, eps=1e-05, momentum=0.1, affine=True, track_running_stats=True)
    (22): MaxPool1d(kernel_size=2, stride=2, padding=0, dilation=1, ceil_mode=False)
    (23): Dropout(p=0.5, inplace=False)
  )
  (fc_layers): Sequential(
    (0): Linear(in_features=192000, out_features=1024, bias=True)
    (1): ReLU()
    (2): Linear(in_features=1024, out_features=512, bias=True)
    (3): ReLU()
    (4): Linear(in_features=512, out_features=1, bias=True)
    (5): Sigmoid()
  )
)

Batch size: 16

Loss function: BCELoss()

Optimizer: SGD (
Parameter Group 0
    dampening: 0
    differentiable: False
    foreach: None
    fused: None
    lr: 0.01
    maximize: False
    momentum: 0.5
    nesterov: False
    weight_decay: 0
)

Start of training
	End of epoch 1 - Accuracy = 50.00% - F1 = 0.00% - Train Loss = 77.85% - Val Loss = 69.51% - 14.08 seconds
…
