…
Subset 113 data count: 8
	With apnea: 4
	Without apnea: 4
Subset 114 data count: 8
	With apnea: 4
	Without apnea: 4
Subset 115 data count: 6
	With apnea: 3
	Without apnea: 3
Subset 116 data count: 8
	With apnea: 4
	Without apnea: 4
Subset 117 data count: 6
	With apnea: 3
	Without apnea: 3
Subset 118 data count: 6
	With apnea: 3
	Without apnea: 3
Subset 119 data count: 86
	With apnea: 4
	Without apnea: 82
Train count: 850
	With apnea: 425
	Without apnea: 425
Val count: 108
	With apnea: 54
	Without apnea: 54
Test count: 1003
	With apnea: 52
	Without apnea: 951

Model(
  (conv_layers): Sequential(
    (0): Conv1d(1, 8, kernel_size=(35,), stride=(1,), padding=same)
    (1): ReLU()
    (2): Conv1d(8, 8, kernel_size=(50,), stride=(1,), padding=same)
    (3): ReLU()
    (4): BatchNorm1d(8, eps=1e-05, momentum=0.1, affine=True, track_running_stats=True)
    (5): MaxPool1d(kernel_size=7, stride=7, padding=0, dilation=1, ceil_mode=False)
    (6): Dropout(p=0.1, inplace=False)
    (7): Conv1d(8, 128, kernel_size=(35,), stride=(1,), padding=same)
    (8): ReLU()
    (9): Conv1d(128, 128, kernel_size=(35,), stride=(1,), padding=same)
    (10): ReLU()
    (11): BatchNorm1d(128, eps=1e-05, momentum=0.1, affine=True, track_running_stats=True)
    (12): MaxPool1d(kernel_size=7, stride=7, padding=0, dilation=1, ceil_mode=False)
    (13): Dropout(p=0.1, inplace=False)
    (14): Conv1d(128, 128, kernel_size=(50,), stride=(1,), padding=same)
    (15): ReLU()
    (16): Conv1d(128, 16, kernel_size=(50,), stride=(1,), padding=same)
    (17): ReLU()
    (18): BatchNorm1d(16, eps=1e-05, momentum=0.1, affine=True, track_running_stats=True)
    (19): MaxPool1d(kernel_size=7, stride=7, padding=0, dilation=1, ceil_mode=False)
    (20): Dropout(p=0.1, inplace=False)
  )
  (fc_layers): Sequential(
    (0): Linear(in_features=272, out_features=1024, bias=True)
    (1): ReLU()
    (2): Linear(in_features=1024, out_features=512, bias=True)
    (3): ReLU()
    (4): Linear(in_features=512, out_features=1, bias=True)
    (5): Sigmoid()
  )
)

Batch size: 32

Loss function: BCELoss()

Optimizer: SGD (
Parameter Group 0
    dampening: 0
    differentiable: False
    foreach: None
    fused: None
    lr: 0.01
    maximize: False
    momentum: 0
    nesterov: False
    weight_decay: 0
)

Start of training
	End of epoch 1 - Accuracy = 62.96% - F1 = 47.37% - Train Loss = 66.80% - Val Loss = 68.91% - 22.73 seconds
…
